tests/mnist/py/cnn.pth (torch, 119447 bytes, 6 tensors)

weight f4 [16, 1, 5, 5]
0.303131 -0.06508976 -0.19837502 -0.22428973 -0.27632964 0.34658748 0.19309734 -0.06198446
0.38774586 -0.26245227 -0.74108416 -0.23809583 0.3205553 0.4348054 0.15662804 -1.0936042
-1.0457801 -0.37226593 -0.28934002 0.3717788 -0.24660967 -0.6596661 0.035250098 -0.23480015
-0.25451824 0.14373721 0.09094547 -0.0905524 -0.13709107 0.18346371 0.037499532 0.03203567
-0.16062641 -0.03720466 -0.07884974 -0.076446764 0.0042726863 -0.30984476 -0.023750603 -0.27126372
-0.41729537 0.0714742 -0.2703404 -0.008597105 0.046066057 -0.117771864 0.16046064 -0.073493294
-0.10294438 -0.32806385 0.14214101 -0.60728985 -0.08474044 0.3666781 -0.014619099 -0.7176641
-0.24500054 0.5459315 0.3444923 -0.149408 -0.8115742 0.29448408 0.6084648 -0.3760943
-0.25528833 -0.23593152 0.082331054 -0.82620716 -0.69302255 -0.18111883 0.22963478 -0.13015765
-1.15607 -0.84711266 0.5226659 -0.17095822 -0.13044989 0.41107368 -0.1013864 0.2409751
0.036915734 0.25750986 0.100033395 -0.6451532 -0.05798002 0.04713216 0.35947302 -0.33852047
-0.9844833 -1.492841 -0.1432954 0.2829386 -0.61704594 -0.63835466 -1.0240667 -0.2381838
0.10551983 0.06828197 0.25717992 0.14767915 0.006836877 -0.021507803 0.06762183 -0.12784535
0.09969318 -0.035906997 0.024109876 -0.13209307 0.10203214 -0.21690124 -0.3097043 -0.027191496
0.09641082 0.047721975 0.11816606 -0.11825159 -0.02319499 -0.056232255 -0.0002310681 -0.21931946
-0.067368835 -0.21319915 0.09498651 -0.26029536 0.0022991146 -0.0029104305 -0.19936597 -0.30976054
-0.3566836 -0.018859144 -0.00782332 -0.2343035 -0.26602328 -0.3534322 -0.056032628 -0.093371905
-0.15749139 0.020646654 0.075778715 0.33411303 -0.27217367 0.12908839 0.1870336 -0.19462515
-0.39910057 -0.23358247 0.2758949 -0.51579934 -0.2455375 -0.46466956 -0.38616276 -0.44658437
0.33892378 -0.06623787 -0.12243783 -0.41838595 0.28936648 0.3139441 -0.349273 0.51060206
0.068115264 0.3636563 -0.13658535 -0.12923749 0.08321636 0.5220167 0.19812506 -0.5230833
-0.37427175 -0.14740804 0.18008323 -0.7714005 -0.31253037 -0.39523497 -0.42522404 -0.36769286
-0.10557134 -0.08817757 0.25180987 -0.090634786 -0.24532078 -0.1275029 -0.10920664 0.34008607
-0.021031547 0.085506335 -0.1365897 -0.2708411 0.35924146 0.21827048 0.24689464 0.12804821
-0.11624242 0.25513813 0.1314404 0.19123964 0.27143353 -0.22409818 -0.22902629 0.13129187
0.03256275 -0.28548187 -0.12685019 -0.073914215 -0.21086143 -0.15309024 -0.25027502 0.034660295
0.059059992 -0.031900845 -0.20825163 -0.06443888 0.1293922 -0.015410839 0.09503062 0.07287879
-0.19640578 -0.14041553 0.1399521 0.19157115 -0.1347006 -0.2154885 -0.27350298 0.1891564
0.13181116 0.26017573 -0.075231776 -0.04469526 0.021307081 -0.019728187 -0.006894685 0.36377406
-0.4092343 -0.038093347 -0.1929224 0.24195443 -0.04997607 -0.19122006 0.0637254 0.11012938
0.076137215 -0.07833182 -0.6089223 0.16362153 0.57216716 -0.16303621 -0.05270853 -0.58215755
-0.052404184 0.09128759 -0.6338031 0.10157 -0.03533399 -0.8897722 -0.19425984 0.117008284
00000000: fd33 9b3e c84d 85bd d222 4bbe 35ac 65be
00000010: 147b 8dbe ea73 b13e 4fbb 453e 6be3 7dbd
00000020: a086 c63e 2560 86be b1b7 3dbf 65cf 73be
00000030: d31f a43e d09e de3e 1a63 203e 39fb 8bbf
00000040: 1fdc 85bf a499 bebe 6024 94be ca59 be3e
00000050: 3f87 7cbe e1df 28bf 6862 103d 736f 70be
00000060: 3750 82be d92f 133e 9e41 ba3d 8973 b9bd
00000070: 9a61 0cbe e9dd 3b3e 1c99 193d d637 033d
00000080: 407b 24be ea63 18bd f97b a1bd 1f90 9cbd
00000090: e401 8c3b f9a3 9ebe a090 c2bc 14e3 8abe
000000a0: bda7 d5be 1161 923d 0f6a 8abe dfda 0cbc
000000b0: c3af 3c3d 6032 f1bd cb4f 243e a783 96bd
000000c0: 81d4 d2bd fcf7 a7be 6a8d 113e 5977 1bbf
000000d0: 658c adbd 3bbd bb3e f284 6fbc d6b8 37bf
000000e0: 6ce1 7abe 2bc2 0b3f 4b61 b03e 69fe 18be
000000f0: 54c3 4fbf 9ec6 963e 59c4 1b3f 6f8f c0be
00000100: 27b5 82be 0898 71be 2f9d a83d 5082 53bf
00000110: ed69 31bf 3777 39be 6125 6b3e 0c48 05be
00000120: 1afa 93bf 60dc 58bf 6fcd 053f ac0f 2fbe
00000130: a894 05be 4078 d23e aca3 cfbd 2dc2 763e
00000140: f434 173d 55d8 833e 4fde cc3d c328 25bf
00000150: 757c 6dbd a70d 413d d90c b83e 8e52 adbe
00000160: 1907 7cbf 6a15 bfbf 08bc 12be 54dd 903e
00000170: b9f6 1dbf 366b 23bf 9e14 83bf 74e6 73be
00000180: c81a d83d 6bd7 8b3d 16ad 833e 3439 173e
00000190: e207 e03b 2231 b0bc 507d 8a3d e4e9 02be
000001a0: f02b cc3d 3713 13bd 1382 c53c 6843 07be
000001b0: 3af6 d03d 5c1b 5ebe 9091 9ebe b3c0 debc
000001c0: 0973 c53d 1e78 433d 0c01 f23d e42d f2bd
000001d0: 6b03 bebc cb53 66bd df4a 72b9 4895 60be
000001e0: acf8 89bd e150 5abe 4a88 c23d 6f45 85be
000001f0: beac 163b ecbc 3ebb 9826 4cbe ef98 9ebe
00000200: 3c9f b6be 7e7e 9abc 622d 00bc 42ed 6fbe
00000210: 3434 88be 11f5 b4be 7882 65bd c539 bfbd
00000220: 6c45 21be 2c23 a93c df31 9b3d dd10 ab3e
00000230: 595a 8bbe bf2f 043e bc85 3f3e d14b 47be
00000240: e956 ccbe 3e30 6fbe 1942 8d3e 6d0b 04bf
00000250: 2f6e 7bbe 2be9 edbe 20b7 c5be b5a6 e4be
00000260: 6b87 ad3e b8a7 87bd afc0 fabd af36 d6be
00000270: d827 943e 48bd a03e e9d3 b2be d1b6 023f
00000280: 0480 8b3d 2931 ba3e 08dd 0bbe d556 04be
00000290: 576d aa3d e3a2 053f 4ce1 4a3e cae8 05bf
000002a0: 8ca0 bfbe 22f2 16be bd67 383e 817a 45bf
000002b0: fb03 a0be 3d5c cabe f7b6 d9be 3d42 bcbe
000002c0: c935 d8bd 7196 b4bd 39ed 803e bb9e b9bd
000002d0: 5f35 7bbe 1f90 02be bba7 dfbd c31f ae3e
000002e0: 5a4a acbc f21d af3d 2cde 0bbe afab 8abe
000002f0: 7fee b73e 4c82 5f3e f3d1 7c3e 121f 033e
00000300: 8210 eebd 77a1 823e 5098 063e 53d4 433e
00000310: 56f9 8a3e fe79 65be de85 6abe 6071 063e
00000320: 8560 053d ae2a 92be 04e5 01be 5660 97bd
00000330: 0fec 57be b0c3 1cbe 0c24 80be f4f7 0d3d
00000340: e4e8 713d 76aa 02bd ea3f 55be 88f8 83bd
00000350: 647f 043e be7d 7cbc 6a9f c23d 7a41 953d
00000360: 991e 49be 17c9 0fbe 9a4f 0f3e 3a2b 443e
00000370: f4ee 09be 04a9 5cbe 9508 8cbe 37b2 413e
00000380: 81f9 063e c135 853e 1e13 9abd 6012 37bd
00000390: 308c ae3c 029d a1bc cfec e1bb 9840 ba3e
000003a0: 2887 d1be c507 1cbd 738d 45be e7c2 773e
000003b0: b5b3 4cbd 31cf 43be 7682 823d 838b e13d
000003c0: d4ed 9b3d 6f6c a0bd 55e2 1bbf 678c 273e
000003d0: 8c79 123f f7f2 26be e6e4 57bd 4708 15bf
000003e0: c5a5 56bd fdf4 ba3d ec40 22bf ef03 d03d
000003f0: 60ba 10bd 1cc8 63bf 0dec 46be 0aa2 ef3d

bias f4 [16]
0.06799764 -0.11400287 -0.01860501 0.046041884 -0.2626127 -0.081017904 -0.04265791 -0.4426282
-0.22650094 -0.11635656 -0.014746896 -0.23071185 -0.02454544 0.33667707 -0.08876208 -0.12155768
00000000: 5942 8b3d 567a e9bd 8969 98bc 6a96 3c3d
00000010: 2c75 86be b7ec a5bd 10ba 2ebd 2aa0 e2be
00000020: ddef 67be 594c eebd f79c 71bc ba3f 6cbe
00000030: 8513 c9bc f060 ac3e e5c8 b5bd 3cf3 f8bd

weight f4 [32, 16, 5, 5]
-0.43878 -0.34348926 -0.22062704 -0.43055382 0.5428188 -0.36511168 -0.008904362 -0.27267012
-0.24300823 -0.1705177 -0.72147834 -0.36830953 -0.38570163 -0.9970678 -0.4656554 0.47305
0.24341868 -0.4995345 -0.44766933 -0.3368851 -0.27221453 0.22494048 0.0946994 0.32758832
0.021404479 -0.06966192 -0.028049309 -0.05045199 0.034057327 0.0058009736 -0.036216337 -0.041445326
-0.024477713 0.003095596 -0.098908454 -0.071480535 0.028286977 0.057503164 -0.05414273 -0.07240582
-0.07208657 0.079197526 0.036198124 -0.0023667759 0.033996325 0.14003839 0.034481287 0.032234985
-0.06764505 -0.07284755 -0.4764485 0.06162963 -0.13894594 -0.49018142 0.053481784 -0.6588286
-0.28602344 -0.23209095 -0.15805951 0.0665228 -0.3360552 -0.26241428 -0.1612207 -0.20941696
-0.4976856 0.026536282 -0.111910805 -0.18096195 -0.42470127 -0.5759582 -0.4825965 0.2574184
-0.12286224 -0.47895965 -1.065819 -0.3277158 -0.34674498 -0.09146375 0.14376573 0.007338443
-0.4895447 -0.42632508 -0.19242992 0.28822675 -0.14442128 -0.83003455 -0.43469718 -0.26147652
-0.20826015 -0.13364255 -0.6518449 -0.5717848 -0.021158937 0.2622147 0.15505175 0.066109054
0.101904534 -0.091295935 -0.45882538 -0.25792953 -0.09814474 0.013737039 -0.03642563 -0.120714046
-0.117259294 -0.049411695 0.07885344 -0.02500082 -0.064216174 -0.01064305 -0.00832206 0.019888049
0.0031288147 0.02544485 0.021979915 0.041401695 0.06897319 0.056555133 -0.009315622 -0.03674924
-0.0167962 0.1266255 0.028455352 0.017206056 -0.033966064 0.13476197 0.19204213 -0.092450485
-0.18484646 -0.09100003 -0.1661399 -0.03803427 -0.06839197 0.1579686 0.15687452 -0.06853152
-0.11426612 -0.0053140144 0.027982883 -0.11415135 -0.120773464 0.04211036 0.009604588 0.03156206
0.0021527924 -0.11222597 0.06288014 0.11307342 0.037441425 -0.15342234 -0.43702748 0.08753095
-0.03909556 0.061617125 0.33422655 -0.397255 -0.1334997 -0.23362114 0.47404438 0.34202936
-0.82642186 -0.12891245 0.129941 0.18705997 -0.0569409 0.014618851 0.23404735 -0.038355667
0.028722182 -0.3813811 -0.62931854 -0.03839015 0.005171016 -0.13078053 -0.42818737 -0.042588554
-0.35671347 0.14452873 0.030619815 0.32077637 0.04760067 0.03253582 0.18052033 -0.24905714
0.005797391 -0.0013068069 0.10866942 0.1804945 -0.17584537 -0.22058706 0.27947372 0.07077327
-0.29348722 -0.35963556 -0.59352845 -0.12581289 -0.03038906 -0.7006632 -0.57799745 -0.1888892
-0.048029803 0.0136405565 0.028728988 -0.09518353 -0.075449 0.08347057 0.09177842 0.08684913
-0.0927239 -0.07443172 -0.02691552 0.063105635 0.035972957 -0.033218976 -0.07285031 -0.07266682
0.09983537 0.07356461 -0.041236307 -0.038436066 -0.26381442 -0.08298007 0.068814166 -0.036947366
-0.1303475 0.25303173 0.060143597 0.084351346 -0.10514411 0.31764922 0.07710747 -0.12051196
0.23080012 -0.16453122 -0.035189297 -0.00068681926 -0.14442176 -0.21803701 -0.1239959 -0.69861346
0.32869455 -0.018100707 -0.45708862 -0.24865438 -0.5831095 -0.37224323 -0.3603851 0.07954216
-0.15107262 -0.40297925 0.081821725 -0.15930586 -0.031277627 0.39558312 0.015439281 -0.13584615
00000000: c6a7 e0be d3dd afbe 0eec 61be 8d71 dcbe
00000010: 2cf6 0a3f ebef babe 9ae3 11bc 6b9b 8bbe
00000020: 26d7 78be 319c 2ebe ceb2 38bf 1193 bcbe
00000030: af7a c5be d63f 7fbf 626a eebe 9c33 f23e
00000040: bf42 793e fcc2 ffbe ea34 e5be 347c acbe
00000050: b45f 8bbe cc56 663e c2f1 c13d a8b9 a73e
00000060: 7258 af3c e9aa 8ebd aac7 e5bc bfa6 4ebd
00000070: b27f 0b3d 1816 be3b 9557 14bd 93c2 29bd
00000080: 7c85 c8bc 7cdf 4a3b 8490 cabd 6364 92bd
00000090: 17ba e73c 7088 6b3d c4c4 5dbd 8149 94bd
000000a0: 20a2 93bd 5032 a23d 7c44 143d e91b 1bbb
000000b0: bb3f 0b3d 3966 0f3e 403c 0d3d d508 043d
000000c0: 7d89 8abd 1931 95bd 0ff1 f3be 5a6f 7c3d
000000d0: d847 0ebe 0ff9 fabe b70f 5b3d fea8 28bf
000000e0: aa71 92be 40a9 6dbe 5ada 21be 1b3d 883d
000000f0: 6d0f acbe 2a5b 86be 0a17 25be 6671 56be
00000100: a6d0 febe 9e62 d93c 7e31 e5bd 174e 39be
00000110: 7272 d9be ff71 13bf e316 f7be 58cc 833e
00000120: 339f fbbd 333a f5be c26c 88bf 5eca a7be
00000130: 8f88 b1be 5951 bbbd 5337 133e 5277 f03b
00000140: 9aa5 fabe 4847 dabe 590c 45be 7592 933e
00000150: 2ce3 13be 257d 54bf a190 debe 40e0 85be
00000160: 2642 55be 98d9 08be 4fdf 26bf 7d60 12bf
00000170: 8255 adbc 0141 863e e3c5 1e3e 2f64 873d
00000180: 53b3 d03d 5df9 babd 29eb eabe 570f 84be
00000190: 1c00 c9bd 5111 613c 0b33 15bd ed38 f7bd
000001a0: a425 f0bd eb63 4abd ea7d a13d 85ce ccbc
000001b0: c583 83bd 3060 2ebc 4059 08bc 43ec a23c
000001c0: cd0c 4d3b b871 d03c 390f b43c d394 293d
000001d0: d141 8d3d 5ba6 673d 8da0 18bc 5f86 16bd
000001e0: 2f98 89bc 1daa 013e 331b e93c b7f3 8c3c
000001f0: 0020 0bbd 0bff 093e b1a6 443e ae56 bdbd
00000200: 6448 3dbe 395e babd 9420 2abe d3c9 1bbd
00000210: 1711 8cbd 85c2 213e b7a3 203e 415a 8cbd
00000220: 5b04 eabd 2f21 aebb 5c3c e53c 2fc8 e9bd
00000230: 1458 f7bd ea7b 2c3d 905c 1d3c 3847 013d
00000240: dd15 0d3b bbd6 e5bd 4ec7 803d 0a93 e73d
00000250: 2e5c 193d bf1a 1dbe 11c2 dfbe 6d43 b33d
00000260: aa22 20bd 3d62 7c3d be1f ab3e 0265 cbbe
00000270: 25b4 08be 613a 6fbe f2b5 f23e 791e af3e
00000280: 6290 53bf a001 04be 410f 053e a68c 3f3e
00000290: dc3a 69bd e883 6f3c 1caa 6f3e d51a 1dbd
000002a0: c84a eb3c 6244 c3be 051b 21bf fd3e 1dbd
000002b0: a071 a93b 55eb 05be 603b dbbe 5671 2ebd
000002c0: 26a3 b6be 57ff 133e 68d6 fa3c cd3c a43e
000002d0: ecf8 423d 4844 053d 52da 383e d608 7fbe
000002e0: 0af8 bd3b 2a49 abba 138e de3d 8dd3 383e
000002f0: cf10 34be 93e1 61be 2e17 8f3e 94f1 903d
00000300: f543 96be 2722 b8be 7bf1 17bf 18d5 00be
00000310: 7af2 f8bc aa5e 33bf a4f7 13bf 2c6c 41be
00000320: e6ba 44bd a47c 5f3c 0e59 eb3c 95ef c2bd
00000330: 0185 9abd 9ef2 aa3d 53f6 bb3d f5dd b13d
00000340: 07e6 bdbd a86f 98bd f07d dcbc 873d 813d
00000350: 6158 133d 9f10 08bd 8b32 95bd 57d2 94bd
00000360: 7d76 cc3d 0ba9 963d 67e7 28bd 236f 1dbd
00000370: af12 87be 74f1 a9bd 71ee 8c3d 1f56 17bd
00000380: d179 05be 608d 813e 2259 763d 66c0 ac3d
00000390: cc55 d7bd eba2 a23e 85ea 9d3d f9ce f6bd
000003a0: de56 6c3e df7a 28be a722 10bd a90b 34ba
000003b0: 4ce3 13be 1845 5fbe 90f1 fdbd 55d8 32bf
000003c0: a74a a83e ef47 94bc 8507 eabe 419f 7ebe
000003d0: aa46 15bf aa96 bebe 6584 b8be 00e7 a23d
000003e0: c8b2 1abe 4c53 cebe 2692 a73d 1321 23be
000003f0: f81c 00bd df89 ca3e 0af5 7c3c 411b 0bbe

bias f4 [32]
0.27488598 -0.17421868 -0.06526621 -0.22300196 -0.2216008 -0.13989604 -0.0654329 -0.47605598
-0.1579205 0.22400361 0.14605871 -0.08918201 -0.07264773 0.19027622 -0.104796834 -0.27719653
-0.29309627 -0.11775681 -0.088519126 -0.24884911 -0.0064245136 -0.17319365 -0.017326146 -0.015115189
0.092580386 -0.07156263 0.26641926 -0.1039684 0.03227021 -0.10910626 -0.077326074 -0.07793126
00000000: dbbd 8c3e 6266 32be 4aaa 85bd a05a 64be
00000010: 52eb 62be e840 0fbe af01 86bd 9cbd f3be
00000020: e9b5 21be 3461 653e 6a90 153e 0fa5 b6bd
00000030: 55c8 94bd c5d7 423e b99f d6bd b4ec 8dbe
00000040: b710 96be 7b2a f1bd 8449 b5bd 4dd2 7ebe
00000050: ba84 d2bb ad59 31be 90ef 8dbc b3a5 77bc
00000060: c99a bd3d 6e8f 92bd 1b68 883e 62ed d4bd
00000070: c52d 043d 1a73 dfbd 225d 9ebd 6d9a 9fbd

weight f4 [10, 1568]
-0.1691875 0.16014859 -0.055612814 -0.12636222 -0.07958977 0.22966014 0.20824634 -0.27955285
0.024747608 0.07225841 -0.123839356 -0.10937543 0.13201696 0.2492181 -0.24892285 0.02580138
-0.043449122 -0.18515448 0.15146998 0.074419186 -0.023637975 -0.030299202 -0.036030117 -0.11177901
-0.017308658 -0.14042062 -0.12368842 -0.06446757 -0.21451564 0.09094318 0.13639483 0.17442307
-0.057332225 -0.16521366 -0.019894022 0.37831435 0.009058203 0.27114156 0.017502949 0.09141649
-0.056730915 0.07538112 0.12989898 -0.010976711 0.2846277 0.0943215 0.061869197 0.0034974976
-0.027832 0.12871492 -0.0020940176 0.11183154 0.14475116 0.15291545 -0.117369495 -0.17728986
-0.001804692 -0.05890388 -0.44965273 -0.13204785 0.40315846 -0.44996488 -0.1306261 -0.004780299
0.11296381 -0.1892746 0.14915788 0.48955515 -0.20944239 0.06954322 -0.025527917 0.21582408
-0.08375328 -0.25720948 0.39274472 -0.010832612 0.4325469 0.002561342 0.095408835 -0.38375425
-0.6048881 0.35873795 -0.29633737 0.37977403 -0.006079902 0.11693388 -0.1216176 -0.28228056
-0.21135457 -0.050138135 -0.04715467 -0.102482885 -0.03993309 -0.074105605 0.0077971574 -0.2945173
0.038039844 -0.1882543 -0.0013617654 -0.04598785 -0.048691586 -0.08077122 -0.054393444 -0.08186717
-0.069239564 0.037512764 -0.049810033 -0.06681742 -0.037147067 -0.055543274 -0.09072396 -0.102473065
-0.013055611 -0.06059874 -0.046930917 -0.04447224 -0.07378004 -0.0778344 -0.0015763554 -0.04388053
-0.05779208 -0.05968846 -0.06007807 -0.07878046 -0.07399139 -0.04257876 -0.054327223 -0.046284705
-0.0731409 -0.045405567 -0.0886044 -0.053318776 -0.0746741 -0.017033927 -0.030025784 -0.0907439
-0.074963614 -0.0640151 -0.06798564 -0.07880214 0.04190303 -0.026788723 -0.030870201 -0.01693773
-0.011642919 -0.023764767 -0.04838608 -0.1966996 -0.12924983 -0.26707882 -0.07785947 0.20043805
0.5161654 0.23850916 0.06784572 -0.19545256 0.05504701 -0.22290564 -0.01021162 -0.12669933
-0.015020338 0.064645864 0.08925073 0.043323528 -0.14898285 0.50918746 0.306209 -0.006868068
0.18024346 0.29433367 -0.22361816 0.034942396 0.07261835 -0.05215015 -0.4970582 -0.11348196
-0.16097642 0.25580537 -0.16540092 0.082013115 -0.013594079 -0.4169737 0.074459985 -0.14311694
0.123360656 -0.048752356 0.13084288 -0.09415188 -0.6789 -0.3982016 0.16860536 0.09370153
0.08204531 0.011238311 -0.0029638074 -0.10060986 0.30406615 0.094899654 -0.041978627 0.1902163
0.34411377 0.17872788 0.12845911 0.41535294 0.07510375 0.34260592 0.007334629 0.37791893
0.19207029 0.23348758 0.24146771 0.14111453 0.32033494 0.13024794 0.3456596 0.3704378
0.057566278 0.15544666 0.18715735 0.198201 0.19628258 0.23218444 0.40693587 0.12926035
0.07382057 0.14960894 0.07074766 0.0806276 0.2665441 0.19614744 0.12951453 0.17809334
0.12858526 0.023398468 0.19155045 0.299268 0.2868002 0.24801147 0.070976704 0.05342339
-0.10276412 -0.034455415 0.29390997 0.24251463 0.15801089 0.07714782 0.04035417 0.04251804
0.04267398 0.05735571 0.08419722 -0.047165338 0.07141332 0.042406384 -0.0395343 -0.045390844
00000000: 7d3f 2dbe fefd 233e 43ca 63bd 1965 01be
00000010: f6ff a2bd 072c 6b3e 873e 553e 8d21 8fbe
00000020: 7fbb ca3c 38fc 933d 7d9f fdbd 3a00 e0bd
00000030: 742f 073e 0833 7f3e a2e5 7ebe 6a5d d33c
00000040: b5f7 31bd 2399 3dbe f21a 1b3e 1669 983d
00000050: 6da4 c1bc 0836 f8bc 5194 13bd 65ec e4bd
00000060: e3ca 8dbc 6cca 0fbe 5b50 fdbd 9307 84bd
00000070: fda9 5bbe 6b40 ba3d 16ab 0b3e f69b 323e
00000080: 32d5 6abd c52d 29be caf8 a2bc 6bb2 c13e
00000090: db68 143c 11d3 8a3e 5862 8f3c 9238 bb3d
000000a0: ad5e 68bd 6b61 9a3d 3d04 053e aad7 33bc
000000b0: b9ba 913e a12b c13d 8e6a 7d3d 4636 653b
000000c0: efff e3bc d8cd 033e c93b 09bb ef07 e53d
000000d0: a639 143e de95 1c3e 6b5f f0bd 798b 35be
000000e0: 6a8b ecba 3245 71bd e238 e6be 8d37 07be
000000f0: c96a ce3e cc61 e6be d9c2 05be 0ea4 9cbb
00000100: 9259 e73d 33d1 41be d8bc 183e f9a6 fa3e
00000110: 1178 56be ad6c 8e3d ec1f d1bc fd00 5d3e
00000120: d786 abbd f6b0 83be d615 c93e 457b 31bc
00000130: ca76 dd3e 30dc 273b b565 c33d 707b c4be
00000140: f2d9 1abf 80ac b73e 88b9 97be be71 c23e
00000150: ea39 c7bb 087b ef3d a612 f9bd 1487 90be
00000160: 556d 58be a55d 4dbd 4125 41bd 8ce2 d1bd
00000170: e190 23bd aec4 97bd 4c7f ff3b f9ca 96be
00000180: abcf 1b3d bcc5 40be 447d b2ba c15d 3cbd
00000190: d470 47bd 626b a5bd a9cb 5ebd faa9 a7bd
000001a0: 79cd 8dbd fca6 193d 9b05 4cbd 92d7 88bd
000001b0: 8627 18bd 5881 63bd 7ccd b9bd 66dd d1bd
000001c0: 34e7 55bc 6236 78bd a23a 40bd 8628 36bd
000001d0: fd19 97bd a467 9fbd b69d ceba 12bc 33bd
000001e0: 63b7 6cbd e37b 74bd 6c14 76bd a657 a1bd
000001f0: cc88 97bd 1167 2ebd 3986 5ebd 0895 3dbd
00000200: e5ca 95bd 30fb 39bd 3976 b5bd ca64 5abd
00000210: bcee 98bd bc8a 8bbc a2f8 f5bc f0d7 b9bd
00000220: 8686 99bd 591a 83bd 0e3c 8bbd 0463 a1bd
00000230: 83a2 2b3d 0674 dbbc 81e3 fcbc ffc0 8abc
00000240: f1c1 3ebc 54ae c2bc 7b30 46bd 9f6b 49be
00000250: 115a 04be 8ebe 88be c974 9fbd a23f 4d3e
00000260: 6a23 043f bf3b 743e b2f2 8a3d b724 48be
00000270: f978 613d 6041 64be a34e 27bc 78bd 01be
00000280: dd17 76bc 0d65 843d 16c9 b63d 0374 313d
00000290: f68e 18be 1c5a 023f 6dc7 9c3e 880d e1bb
000002a0: be91 383e e7b2 963e 29fc 64be c21f 0f3d
000002b0: eeb8 943d 659b 55bd 6a7e febe 3b69 e8bd
000002c0: 01d7 24be ecf8 823e dc5e 29be 7ef6 a73d
000002d0: b3b9 5ebc 947d d5be 7a7e 983d 3f8d 12be
000002e0: 83a4 fc3d 8db0 47bd adfb 053e b3d2 c0bd
000002f0: 64cc 2dbf 15e1 cbbe e2a6 2c3e 96e6 bf3d
00000300: 5f07 a83d e520 383c 703c 42bb 8b0c cebd
00000310: 8fae 9b3e c05a c23d c8f1 2bbd 10c8 423e
00000320: ae2f b03e 7104 373e c98a 033e 24a9 d43e
00000330: ffcf 993d 0b6a af3e 5457 f03b 977e c13e
00000340: 13ae 443e 5e17 6f3e 5043 773e 5480 103e
00000350: f102 a43e b75f 053e 4cfa b03e 06aa bd3e
00000360: 9eca 6b3d 692d 1f3e 2da6 3f3e 34f5 4a3e
00000370: 4dfe 483e c2c1 6d3e e659 d03e d35c 043e
00000380: 3d2f 973d 1633 193e 26e4 903d 1520 a53d
00000390: 7878 883e e0da 483e 759f 043e 1a5e 363e
000003a0: dbab 033e 25ae bf3c cd25 443e a839 993e
000003b0: 7ad7 923e b8f6 7d3e 3c5c 913d 7cd2 5a3d
000003c0: ff75 d2bd 1f21 0dbd 5e7b 963e c155 783e
000003d0: 9bcd 213e adff 9d3d 6a4a 253d 6527 2e3d
000003e0: e9ca 2e3d d2ed 6a3d 986f ac3d 7130 41bd
000003f0: 2641 923d 51b2 2d3d b8ee 21bd c0eb 39bd

bias f4 [10]
0.04389399 -0.25495687 0.12705249 0.14834324 -0.25975987 0.043248918 0.11820655 0.18396501
0.021519333 -0.17574027
00000000: 2fca 333d b589 82be 0c1a 023e 4ae7 173e
00000010: 3fff 84be c725 313d 4716 f23d 5361 3c3e
00000020: 5049 b03c 42f5 33be
